10x10grid_3_cars_3_passengers_100000_episodes/unshared_model_num_cars_3_num_passengers_3_num_episodes_100000_hidden_size_100.pth (torch_old, 12052 bytes, 4 tensors)

fc1.weight f4 [100, 18]
0	0xbe11286e	-0.14175579
1	0xbe170c09	-0.14750685
2	0x3e319787	0.1734296
3	0x3f441eea	0.7660967
4	0xbf11aa23	-0.56900233
5	0xbe3ecd5f	-0.1863303
6	0x3f340a30	0.70328045
7	0xbf074228	-0.5283532
8	0xba8a313a	-0.0010543235
9	0x3d325936	0.04354211
10	0x3d978370	0.073981166
11	0x3c8d37e6	0.017238569
12	0xbd046cf8	-0.032330483
13	0xbcc06331	-0.023484798
14	0xbd9bb083	-0.07602026
15	0xbda21947	-0.079149775
16	0xbbc377a1	-0.0059651886
17	0xbc4959d0	-0.012289479
18	0xbf3f586c	-0.74744296
19	0x3e9b5db1	0.30344918
20	0x3e6012ea	0.21882215
21	0xbd6e76dd	-0.058218826
22	0xbcdbf6a1	-0.026851
23	0xbf34f787	-0.70690197
24	0x3f10a588	0.5650258
25	0x3f163a6f	0.5868291
26	0xbd8e8dc2	-0.06960632
27	0xbd814294	-0.06311527
28	0x3d60cc76	0.05488249
29	0x3bbf1375	0.005831177
30	0xbdbb33fd	-0.09140775
31	0xbcebe89d	-0.028797442
32	0x3d852b3e	0.065023884
33	0x3d92a17e	0.071597084
34	0xbd48a7ce	-0.048988156
35	0xbc347736	-0.01101475
36	0x3d2546ab	0.040350597
37	0xbf0d49d1	-0.5519076
38	0xbe98ac99	-0.29819182
39	0x3ec019dc	0.3751973
40	0x3ea1018a	0.31446487
41	0xbe9a803a	-0.30175954
42	0x3e3c8563	0.18410258
43	0xbf0535bc	-0.5203512
44	0xbd48ae07	-0.04899409
45	0x3d2e5a87	0.042566802
46	0xbe943cfa	-0.2895277
47	0x3f257576	0.64632356
48	0xbdc7808b	-0.097413145
49	0xbd0b8b35	-0.034068305
50	0x3d894a34	0.06703606
51	0x3dd48f2e	0.10378872
52	0x3d411189	0.047135863
53	0x3dd17c80	0.102288246
54	0x3d3c9741	0.046042684
55	0xbbcc6af2	-0.006238335
56	0x3dbb239a	0.0913765
57	0x3ed328ee	0.41242164
58	0xbd522713	-0.051306795
59	0xbef85b49	-0.48507145
60	0xbcc2595b	-0.023724249
61	0x3e5c3f25	0.21508463
62	0x3d8ac129	0.067751236
63	0xbe6ae17e	-0.22937581
64	0x3d953b6a	0.07286723
65	0xbd1c3802	-0.03813935
66	0xbe170543	-0.14748101
67	0xbd3ab4e3	-0.045582663
68	0x3e80baf5	0.25142637
69	0x3dc1e83e	0.09468125
70	0xbcdbe8f7	-0.026844485
71	0x3d706521	0.058690194
72	0x3debd881	0.11515904
73	0xbb78a76d	-0.003794159
74	0x3dc3000c	0.09521493
75	0xbe191438	-0.14949119
76	0xbf2e683f	-0.68127817
77	0x3f09f2ca	0.5388609
78	0x3f45affa	0.77221644
79	0xbf11d988	-0.5697255
80	0xbd556e5a	-0.052107193
81	0xbb71ddc8	-0.0036905874
82	0xbe0a301c	-0.13494915
83	0x3e386202	0.18006137
84	0xbd4863f0	-0.048923433
85	0x3be04e18	0.006845247
86	0xbd6a73f9	-0.057239506
87	0x3c405513	0.011739033
88	0xbcb9ad5d	-0.022665674
89	0x3cc852f0	0.02445361
90	0x3c7d9bde	0.015479056
91	0x3c6711b2	0.01410334
92	0x3cdc59d6	0.026898306
93	0x3c8cfb32	0.017209623
94	0xbd80ffea	-0.06298812
95	0xbf951303	-1.1646427
96	0x3d5f7964	0.054559126
97	0x3f955a01	1.1668092
98	0xba944b3f	-0.0011313929
99	0xbc2a5981	-0.010397316
100	0xbbbc5f91	-0.005748697
101	0xbcd700c3	-0.02624548
102	0xbb768588	-0.0037616212
103	0x3c3487aa	0.011018673
104	0xbb1ced21	-0.002394505
105	0x3c9278f5	0.017879942
106	0xbb4007df	-0.0029301567
107	0xbae4eccf	-0.0017465594
108	0xbdd42a35	-0.10359613
109	0xbe4660b6	-0.1937283
110	0xbe6d4086	-0.23169145
111	0x3b41ae18	0.002955323
112	0x3f555206	0.8332828
113	0x3e0a4a30	0.13504863
114	0xbde38a70	-0.11110389
115	0xbd63e776	-0.05564066
116	0x3cac2fa3	0.021018809
117	0xbdbe4b9a	-0.092917636
118	0xbd9ae548	-0.07563263
119	0xbe298a1e	-0.16556594
120	0x3e5a7110	0.21332192
121	0xbc6008c2	-0.013673963
122	0xbe8098f9	-0.2511671
123	0x3d51255c	0.05106102
124	0xbe661721	-0.2246976
125	0xbd9a6e71	-0.07540596
126	0xbe9e4204	-0.3090974
127	0x3ee0711f	0.43836305
128	0x3dc155bd	0.094401814
129	0xbea9e506	-0.33182544
130	0xbf1feb98	-0.6246886
131	0xbec59fda	-0.3859852
132	0x3da76fc5	0.08175615
133	0x3c5c10fa	0.013431782
134	0x3e14533f	0.14484881
135	0xbe524ace	-0.20536348
136	0x3e5e9972	0.21738222
137	0x3e815226	0.25257987
138	0x3d2007f3	0.03907008
139	0x3e394dfa	0.18096152
140	0x3e870510	0.2637105
141	0xbe8b2903	-0.27179727
142	0xbe58da6b	-0.2117707
143	0x3c05727c	0.008144971
144	0x3e96f647	0.2948477
145	0xbe319653	-0.173425
146	0xbe170355	-0.14747365
147	0x3f2371f6	0.63845766
148	0x3d6340ab	0.055481594
149	0x3e2d670f	0.16933845
150	0x3e1dcb1a	0.15409508
151	0xbed3e8b0	-0.41388464
152	0xbcfcf58f	-0.03087881
153	0x3db64d65	0.089014806
154	0xbdb9df01	-0.09075738
155	0xbe29b454	-0.16572696
156	0x3dedd7f1	0.11613453
157	0x3d18e932	0.037331767
158	0x3e1074f2	0.14107111
159	0xbda13ba6	-0.07872705
160	0x3d3fa36d	0.046786714
161	0xbc468050	-0.012115553
162	0xbd502548	-0.050816804
163	0x3e2fb5df	0.17159222
164	0xbf44df89	-0.7690359
165	0x3e4de04c	0.20105094
166	0x3f2a71f3	0.6658012
167	0xbe639610	-0.22225213
168	0x3e09eeac	0.13469952
169	0x3d9d5f27	0.076841645
170	0xbd8496f6	-0.06474106
171	0x3d06e99b	0.032937627
172	0xbe3a29ac	-0.18179959
173	0xbd25bbcc	-0.0404623
174	0xbcecf71e	-0.028926428
175	0x3d3c9a60	0.04604566
176	0x3e088c57	0.13334785
177	0x3e16b8ab	0.14718883
178	0xbc56ebc3	-0.013117733
179	0xbd4140a0	-0.04718077
180	0x3d6d47e6	0.057929896
181	0x3ccca063	0.024978822
182	0x3d872b4f	0.06600057
183	0xbd9926d6	-0.074781105
184	0x3f772060	0.96533775
185	0x3d6c16d9	0.057638977
186	0xbc20c423	-0.009812388
187	0xbd4866a3	-0.048926007
188	0x3ab41c0a	0.0013741266
189	0xbd340d3b	-0.04395793
190	0xbe0e6dd0	-0.13909078
191	0x3b53d770	0.0032324456
192	0xbd136e49	-0.035993848
193	0xbd2b1907	-0.041771915
194	0xbf838a3b	-1.027656
195	0x3d09ded0	0.033659756
196	0x3cf391bd	0.02973258
197	0xbcd0f9ca	-0.025509734
198	0xbec2b494	-0.38028395
199	0xbf4e0dea	-0.8048998
200	0x3f00539b	0.5012757
201	0x3ecbc40b	0.39798006
202	0x3e93cde9	0.28868034
203	0x3e1d5914	0.15366012
204	0xbe686242	-0.22693732
205	0x3e998546	0.29984492
206	0x3da88d8b	0.08230122
207	0xbc8ddd1f	-0.017317353
208	0xbe34ba51	-0.17649199
209	0x3d12ea10	0.03586775
210	0xbb5db73b	-0.0033831138
211	0x3c539d83	0.012915972
212	0xbe232a90	-0.15934205
213	0xbdc895c2	-0.09794189
214	0x3de5e0de	0.11224531
215	0xbd1bbb02	-0.03802014
216	0x3d00df0e	0.03146272
217	0x3e1f3d4d	0.15550728
218	0x3ed90731	0.423883
219	0x3e2f6b0b	0.17130677
220	0x3d2d2d0b	0.042279284
221	0xbef5205d	-0.47876254
222	0xbe8e33f5	-0.27774015
223	0xbd3f43e8	-0.04669562
224	0xbcce5901	-0.025188925
225	0x3d4ce4d0	0.0500229
226	0xbec9d812	-0.3942266
227	0x3e675942	0.22592643
228	0x3dd35fae	0.10320984
229	0x3df71596	0.12064664
230	0xbee674c0	-0.45010948
231	0x3c95d78e	0.018291261
232	0xbd9865f5	-0.07441322
233	0x3d92efb2	0.071746245
234	0xbf078013	-0.529298
235	0xbe33cdb8	-0.17558944
236	0x3e73dcaa	0.23814645
237	0x3e1c2f65	0.15252455
238	0xbefeb8b9	-0.49750307
239	0xbd13f38b	-0.036120933
240	0x3f414fda	0.7551247
241	0xbc24985d	-0.010046092
242	0xbc8fd294	-0.017556466
243	0x3d9d13ff	0.076698296
244	0x3edcfbb9	0.431608
245	0x3e27a753	0.16372423
246	0xbcbe6f41	-0.02324641
247	0xbb29ab55	-0.0025889475
248	0xbe246049	-0.16052355
249	0xbdb48ae6	-0.08815555
250	0xbcf80a59	-0.030278372
251	0xbbf4ac34	-0.0074668173
252	0x3d92818f	0.071536176
253	0xbef1cf35	-0.472284
254	0xbeae64e9	-0.34061363
255	0x3e133c18	0.14378393

fc1.bias f4 [100]
0	0x3e729108	0.23688138
1	0xbdc6a955	-0.09700266
2	0x3e6d09fc	0.2314834
3	0x3eb2e7dd	0.34942523
4	0x3df8a590	0.121409535
5	0xbdb5d3d9	-0.08878297
6	0x3e1eef92	0.15521076
7	0xbe31d03e	-0.17364594
8	0x3eb48aaf	0.35262057
9	0xbe9a1e34	-0.30101168
10	0x3f41b170	0.75661373
11	0xbf16e450	-0.5894213
12	0x3f2560c7	0.64600796
13	0xbece5165	-0.40296474
14	0x3db877bf	0.09007215
15	0xbe211a3b	-0.15732662
16	0x3f1d91a3	0.6155035
17	0xbed72799	-0.42022398
18	0xbf629e79	-0.8852306
19	0x3d926104	0.071474105
20	0xbeb0b512	-0.34513146
21	0xbf0ea7bd	-0.557247
22	0x3d9f5821	0.07780481
23	0x3e19d3bd	0.15022178
24	0xbdd53533	-0.104105376
25	0xbf283f49	-0.65721565
26	0x3dd0ad05	0.10189251
27	0xbe18414d	-0.1486866
28	0x3ee43557	0.44571945
29	0xbf3b5367	-0.73174137
30	0x3e11dfcb	0.14245526
31	0xbe8e0035	-0.27734533
32	0x3e259b2d	0.16172476
33	0x3ecf2486	0.40457553
34	0x3ecd4834	0.4009415
35	0xbed18b48	-0.40926576
36	0xbbcab4f3	-0.0061861216
37	0x3ea491a9	0.3214238
38	0xbf18e774	-0.5972817
39	0x3e3e0acf	0.1855881
40	0x3d87b48e	0.06626235
41	0x3d09d92b	0.033654373
42	0xbe2cc4e9	-0.1687199
43	0xbe9dbf1a	-0.3080986
44	0x3dfd5364	0.12369421
45	0x3ed46562	0.414836
46	0xbdbb5088	-0.091462195
47	0xbf43d21e	-0.7649249
48	0x3d7ffd88	0.062497646
49	0xbeac6ca3	-0.33676633
50	0xbc6d291b	-0.014475132
51	0x3e8378a0	0.25677967
52	0x3f32911c	0.6975267
53	0xbc445526	-0.011983192
54	0xbed0b6a9	-0.4076436
55	0x3e40be3d	0.1882257
56	0xbd8ed30e	-0.06973849
57	0x3e8e99fa	0.2785185
58	0x3ec17712	0.37786156
59	0xbe12417d	-0.14282794
60	0x3dc6cc74	0.09706965
61	0x3e2a3d45	0.16624935
62	0xbdbd6cc3	-0.0924926
63	0xbe0960bf	-0.13415812
64	0xbeda9a5a	-0.42695886
65	0xbf308097	-0.6894621
66	0x3dc04df1	0.09389866
67	0xbee36136	-0.44410104
68	0xbf26d6f4	-0.6517174
69	0x3dee0f45	0.11624006
70	0x3e101963	0.14072184
71	0xbe315efb	-0.17321388
72	0x3e52edf9	0.20598592
73	0x3d996a79	0.07491011
74	0x3f00f738	0.50377226
75	0xbf0bf2b7	-0.5466723
76	0x3e2d166e	0.16903087
77	0x3e9cba68	0.30610967
78	0xbd427288	-0.047472507
79	0x3e4983c4	0.19679171
80	0x3e8764c8	0.26444077
81	0x3e986883	0.29767236
82	0xbf2ac113	-0.6670086
83	0x3e1f346b	0.1554734
84	0x3e2d4e56	0.16924414
85	0xbede793d	-0.43451872
86	0xbf40fa50	-0.75381947
87	0xbf098d56	-0.53731287
88	0x3d819acd	0.06328354
89	0xbedeaea0	-0.43492603
90	0x3e81af4c	0.25329053
91	0xbdebeda7	-0.11519938
92	0x3e850f01	0.2598801
93	0x3f3a5820	0.7279072
94	0x3eb41aed	0.35176793
95	0x3e63ddd8	0.22252595
96	0x3cbfce3e	0.023413774
97	0x3dd94ead	0.10610709
98	0x3ea2380f	0.31683394
99	0x3d3c6fc0	0.04600501

fc2.weight f4 [9, 100]
0	0x3c3778dd	0.01119825
1	0x3c31d8fb	0.010854955
2	0x3d31af8c	0.043380305
3	0x3b8ce3cc	0.0042996164
4	0xbcc01291	-0.023446353
5	0x3b5baab6	0.00335185
6	0x3c78674d	0.015161348
7	0xbc97b6d0	-0.018519789
8	0x3d23434f	0.039859112
9	0xbbe40b07	-0.0069593224
10	0x3cfeba6a	0.031094749
11	0xbc63dacc	-0.013907146
12	0x3c8b3407	0.016992582
13	0x3d93ab73	0.07210436
14	0xbc96a9c8	-0.018391505
15	0xbc5112df	-0.012760847
16	0xbc6e1a97	-0.014532707
17	0xbdae7182	-0.08517744
18	0x3dc631ca	0.09677465
19	0xbd2772c2	-0.040880926
20	0x3bda05e0	0.0066535324
21	0x3a6084d6	0.0008564716
22	0xbed925fe	-0.42411798
23	0x3c421f7e	0.011848329
24	0xbd07df0c	-0.0331717
25	0x3d039b24	0.032130376
26	0x3c4d68a0	0.012537152
27	0x3bc5ca1d	0.0060360567
28	0xbd14917d	-0.03627156
29	0x3d4b8a40	0.049692392
30	0xbc90bc1e	-0.017667826
31	0xbeefaa29	-0.4680951
32	0x3b9817b5	0.004641498
33	0x3e8e2f6b	0.27770552
34	0x3d0de088	0.034637958
35	0xbd608969	-0.054818545
36	0xbd2a3e54	-0.041563347
37	0x3d3516c5	0.044211168
38	0xbdee1c10	-0.11626446
39	0xbcadfd64	-0.02123899
40	0xbd14ddb3	-0.03634424
41	0xbbbf67d8	-0.0058412366
42	0x3c471b43	0.012152496
43	0xbce1c405	-0.02755929
44	0x3c2f732c	0.010708611
45	0xbdf9e6fb	-0.12202259
46	0xbb4bc897	-0.0031094903
47	0xbc2e96be	-0.010656057
48	0xbeba0192	-0.36329323
49	0x3b7980fc	0.0038071265
50	0x3cc4a3cb	0.024003884
51	0xbc4b007b	-0.012390251
52	0x3e8ad863	0.27118215
53	0xbce5574b	-0.027995726
54	0x3c2d37d7	0.010572395
55	0xbc1a236c	-0.009407859
56	0x3d07e3b4	0.03317614
57	0x3c49a2cb	0.012306879
58	0x3ce90ed4	0.028449453
59	0xbbdf5f86	-0.006816807
60	0x3cf36770	0.029712409
61	0xbf73a44b	-0.95172566
62	0x3d29487b	0.04132889
63	0xbe0184b0	-0.12648273
64	0xbd23d41f	-0.039997216
65	0x3bde36cb	0.006781434
66	0xbaeffb19	-0.0018309086
67	0x3b00861d	0.0019611188
68	0xbc19c209	-0.0093846405
69	0x3d4854ca	0.048908986
70	0xbc6578f1	-0.014005885
71	0xbb8efa5e	-0.004363342
72	0xbbf3c501	-0.007439256
73	0x3da86ccd	0.08223877
74	0xbc83ce3e	-0.016089555
75	0x3c960677	0.01831363
76	0x3d14882d	0.03626268
77	0xbf1f76c1	-0.6229058
78	0xbd8bf4d7	-0.06833809
79	0xbce0d21a	-0.027443934
80	0xbd09c4b7	-0.033634868
81	0xbbb14626	-0.0054099737
82	0xbdd437bd	-0.10362194
83	0xbc4d4628	-0.012528934
84	0x3d0be704	0.03415586
85	0x3bea60b1	0.00715264
86	0xbec1f35c	-0.3788098
87	0x3d4e87c5	0.05042245
88	0x3b81a26e	0.0039561307
89	0x3cdce495	0.026964465
90	0xbd5c0696	-0.05371722
91	0xbc4fcb49	-0.012682744
92	0xbbc33d52	-0.0059582377
93	0xbcbba9a8	-0.022908047
94	0x3b74c807	0.003735067
95	0x3b7e8c1c	0.0038840836
96	0x3c3fa09e	0.011696009
97	0x3ba2dc28	0.0049700923
98	0x3b0478c8	0.0020213593
99	0x3ceaa90e	0.028645065
100	0x3cff5553	0.031168615
101	0xbc40ff37	-0.011779598
102	0x3d2cd0cf	0.042191323
103	0x3d4955ee	0.049154215
104	0xbd4fca75	-0.050730187
105	0xbc729d35	-0.014807989
106	0xbbec038e	-0.007202572
107	0xbd44d6a9	-0.04805628
108	0x3e2e75be	0.17037103
109	0x3da85121	0.08218599
110	0x3c82d6bb	0.015971532
111	0xbd159158	-0.036515564
112	0xbd3466be	-0.044043295
113	0xbc353f49	-0.011062452
114	0x3c8eb7fb	0.017421713
115	0x3d09c3d6	0.03363403
116	0xbd53577e	-0.05159711
117	0x3e222eb8	0.15838134
118	0xbd130c14	-0.03590019
119	0xbb2a97bb	-0.002603038
120	0xbd35b100	-0.044358253
121	0x3cece182	0.028916124
122	0x3e10e079	0.1414813
123	0xbd05459b	-0.032537084
124	0xbc69a1a1	-0.014259727
125	0x3bec17e9	0.0072049988
126	0xbd40afc3	-0.04704262
127	0x3c92747a	0.017877806
128	0xbe3d1966	-0.1846672
129	0xbd3569a8	-0.044290215
130	0xbcb8d192	-0.022560868
131	0x3dfd3117	0.12362879
132	0xbbbdedf3	-0.005796188
133	0xbd072b4c	-0.033000275
134	0xbd76b2ef	-0.060229238
135	0x3d1c9c4d	0.038234998
136	0xbb29527b	-0.0025836516
137	0xbd894449	-0.067024775
138	0x3e2714de	0.16316554
139	0xbc60240f	-0.013680472
140	0xbcf96427	-0.030443264
141	0x3cd68b4e	0.026189473
142	0x3ce4f963	0.027950948
143	0xbae3f09e	-0.0017390435
144	0x3c6648b5	0.014055421
145	0xbd29d5cc	-0.04146366
146	0x3c9c0eb8	0.019049987
147	0xbd083569	-0.03325406
148	0x3e85e933	0.2615448
149	0xbbf05c90	-0.007335253
150	0x3d363b00	0.04448986
151	0xbd066b6a	-0.03281728
152	0xbd8142e6	-0.06311588
153	0x3b65ccc1	0.003506467
154	0x3d6bcab7	0.05756637
155	0x3c34a086	0.0110246
156	0x3b92d022	0.004480378
157	0x3c241482	0.010014655
158	0xbcb150b1	-0.021644922
159	0x3cb2637f	0.021775959
160	0x3ceed6a7	0.029155089
161	0x3b118ca6	0.0022209077
162	0xbf64fa6b	-0.8944461
163	0xbde46abd	-0.11153171
164	0xbd3b395e	-0.045709006
165	0x3c65d557	0.014027915
166	0xbcb261c3	-0.021775132
167	0x3be85813	0.0070905774
168	0x3c141758	0.009038769
169	0xbea48c30	-0.32138205
170	0x3c914886	0.017734777
171	0xbc7d46c6	-0.015458768
172	0xbcb97f05	-0.022643575
173	0x3e2035c1	0.15645505
174	0x3d307929	0.043084297
175	0x3cd80755	0.026370684
176	0x3d3ef721	0.0466224
177	0xbddb1563	-0.106974386
178	0xbbb2d6e3	-0.0054577454
179	0xbc42a55c	-0.011880245
180	0xbbe49071	-0.0069752266
181	0x3d6732bb	0.056444865
182	0xbe95d3ef	-0.29263255
183	0x3dc5730f	0.09641086
184	0xbc8beef6	-0.017081719
185	0x3cb086b6	0.02154861
186	0xbdbe4f50	-0.092924714
187	0x3cf90b9b	0.030401042
188	0xbccecf0b	-0.02524521
189	0xbc754aef	-0.014971479
190	0xbdea34d5	-0.11435858
191	0xbf70476b	-0.93858975
192	0xbae3b378	-0.0017372211
193	0xbd2461b1	-0.04013223
194	0xbd09c4ec	-0.033635065
195	0xbb3a7166	-0.0028448938
196	0x3c12abfa	0.008952135
197	0xbc6a9bf7	-0.0143194115
198	0x3b1768bf	0.0023103205
199	0x3c4ad6c9	0.01238031
200	0xbda0f469	-0.078591175
201	0x3c07e6ef	0.008294805
202	0x3b4a7a2b	0.0030895572
203	0x3d0c7960	0.03429544
204	0xbe82611a	-0.25464708
205	0xbf6b06e5	-0.91807395
206	0x3c19659b	0.009362604
207	0xbd988649	-0.07447488
208	0xbd0f135b	-0.03493057
209	0x3d95fa31	0.07323111
210	0x3aaec65e	0.0013334265
211	0x3d630323	0.055422913
212	0x3ce9c021	0.028533997
213	0xbd01da3a	-0.031702258
214	0x3c20784d	0.009794307
215	0xbd486b85	-0.048930664
216	0xbdac3830	-0.084091544
217	0xbd503b60	-0.050837874
218	0x3d30f7ea	0.04320518
219	0xbf5db209	-0.86599785
220	0xbba5e8a6	-0.0050631342
221	0xbc54c33a	-0.012985999
222	0xbe0b044a	-0.13575855
223	0x3d062b61	0.032756213
224	0xbb1371c4	-0.002249823
225	0x3bdb8acf	0.006699897
226	0xbd2079ea	-0.039178766
227	0x3c39ce59	0.011340701
228	0x3a1b689c	0.0005928369
229	0xbb1795e4	-0.0023130113
230	0x3db23f8a	0.08703525
231	0x3d55201d	0.05203258
232	0x3b2f73f0	0.0026771985
233	0x3c3e0ccf	0.0115997335
234	0x3d897ded	0.067134716
235	0xbd7ed8f1	-0.06221861
236	0x3dc4e010	0.09613049
237	0xbc0823f6	-0.008309355
238	0xbd1a14a1	-0.03761733
239	0xbccca3ab	-0.024980387
240	0x3a51df69	0.0008006008
241	0x3d8c9723	0.068647645
242	0xbccf8c0a	-0.02533533
243	0xbb4e79ae	-0.0031505632
244	0x3c42841a	0.011872316
245	0xbda62ead	-0.081143714
246	0xbca8a9d7	-0.020588798
247	0x3d415aad	0.047205616
248	0xbdf0eb1e	-0.11763595
249	0xbc1fa754	-0.009744484
250	0x3d51d7d4	0.05123122
251	0xbbc6dbfb	-0.006068704
252	0xbab16f70	-0.0013537239
253	0x3c88ae38	0.016684636
254	0x3b97e47d	0.004635392
255	0xbd03e8ff	-0.032204624

fc2.bias f4 [9]
0	0xbe8368a7	-0.2566578
1	0x3d5e1325	0.054217476
2	0x3d5ee73a	0.054419734
3	0xbe695f1b	-0.22790186
4	0xbd238304	-0.039919868
5	0x3b2e4d00	0.0026596189
6	0xbe3d8021	-0.18505909
7	0xbeb896f9	-0.36052683
8	0xbe55012f	-0.20801233
